model/model.pth (torch, 15348 bytes, 6 tensors)

l1.weight f4 [8, 234]
0	0x3e83dcc3	0.25754365
1	0x3c53ecc3	0.012934866
2	0x3d74ef44	0.059798494
3	0x3e59a4fe	0.21254346
4	0xbeb8a6f8	-0.36064887
5	0x3e84f364	0.25966942
6	0xbcd41362	-0.025888149
7	0xbdef0285	-0.116704024
8	0x3e0ee424	0.13954216
9	0x3e208947	0.15677367
10	0xbea618c0	-0.32440758
11	0xbe947541	-0.28995708
12	0x3f3b2b1d	0.7311266
13	0xbe05df95	-0.13073571
14	0xbee551c6	-0.4478895
15	0xbe3fcdd0	-0.18730855
16	0x3e8da5c9	0.27665547
17	0x3e9cad2d	0.30600873
18	0x3e93d6c1	0.28874782
19	0x3f00122b	0.5002772
20	0x3eb3dd43	0.35129747
21	0x3ebadad3	0.36495075
22	0x3ee0e545	0.4392492
23	0x3eb82c31	0.35971215
24	0x3eaa1caf	0.3322501
25	0xbec31ced	-0.38108006
26	0x3e2da53c	0.16957563
27	0x3e3cbff9	0.18432607
28	0x3e78381c	0.24240154
29	0x3db928b4	0.09040967
30	0xbe942503	-0.28934488
31	0xbe81483e	-0.2525043
32	0xbed1ec6b	-0.41000685
33	0x3d1c5359	0.038165424
34	0x3ef3bbd0	0.47604227
35	0xbda126ab	-0.078687035
36	0xbec346b7	-0.3813989
37	0x3ec27a01	0.37983707
38	0x3eeabd0f	0.45847365
39	0x3e0a8532	0.13527372
40	0xbeb63158	-0.3558452
41	0x3f36933c	0.7131841
42	0x3d8e65d1	0.06953014
43	0xbeee651b	-0.46561512
44	0x3e3a04b9	0.18165864
45	0x3eae9872	0.34100682
46	0xbe34e632	-0.17665938
47	0x3df88c79	0.12136168
48	0xbe8ea03a	-0.27856618
49	0x3e9630f3	0.2933422
50	0xbe49b9ac	-0.19699734
51	0xbeb5abd2	-0.3548265
52	0x3d01e055	0.03170808
53	0x3e84839e	0.25881666
54	0x3e236004	0.15954596
55	0x3eb49d88	0.35276437
56	0x3f486fed	0.78295785
57	0x3d03a0fb	0.032135945
58	0xbde09125	-0.10965184
59	0x3d10ceff	0.035353657
60	0x3ed4776b	0.4149736
61	0xbe2b829b	-0.16749041
62	0x3e1661b6	0.14685711
63	0xbf0abbbd	-0.54192716
64	0x3e9b3172	0.3031116
65	0x3eaa4d89	0.3326228
66	0x3e7eeddd	0.24895425
67	0xbe9627a9	-0.29327133
68	0x3dfc349d	0.12314723
69	0x3db1eef3	0.08688154
70	0x3ed31ca9	0.41232803
71	0xbc844bd6	-0.016149443
72	0x3e75ce93	0.24004583
73	0x3e930f31	0.28722528
74	0xbea2fa49	-0.31831577
75	0x3e6024f2	0.21889094
76	0xbeb480a7	-0.35254404
77	0x3ec3cca4	0.38242066
78	0x3efa1832	0.48846585
79	0xbeafd018	-0.3433845
80	0x3ebdb1d1	0.37049726
81	0x3eb0c18f	0.34522673
82	0x3d5351dc	0.05159174
83	0xbea05cab	-0.313207
84	0xbe8c0360	-0.27346325
85	0xbeef591d	-0.46747676
86	0x3e154b8b	0.14579599
87	0x3ec5eb17	0.38655922
88	0xbe4cc2e2	-0.19996217
89	0xbdf80a62	-0.12111355
90	0x3e8847f7	0.26617405
91	0xbe97bd54	-0.29636633
92	0xbed324bb	-0.4123896
93	0x3e8ecabc	0.2788905
94	0x3eda0d73	0.42588386
95	0x3e6ba4ed	0.23012133
96	0x3ee94fe6	0.4556877
97	0xbe9474a4	-0.2899524
98	0x3ee6faff	0.4511337
99	0x3efeb345	0.49746147
100	0x3ee88f36	0.4542176
101	0x3ee4b323	0.4466792
102	0x3edf6d7f	0.43638226
103	0x3e254cc5	0.16142567
104	0xbcd2e027	-0.02574165
105	0x3cc23077	0.02370475
106	0x3e1747d3	0.14773493
107	0x3da9e57f	0.08295726
108	0x3e044cae	0.12919876
109	0x3eca62f5	0.39528623
110	0xbe22029a	-0.15821305
111	0x3ed31c6f	0.4123263
112	0xbed11dec	-0.4084314
113	0xbe66c9d2	-0.22537926
114	0xbdaca331	-0.08429564
115	0x3d0cc680	0.03436899
116	0x3e1d177a	0.15340987
117	0x3e084be1	0.13310196
118	0x3e140445	0.14454754
119	0x3ecad71f	0.3961725
120	0x3e964c9d	0.29355326
121	0x3e626c64	0.2211166
122	0x3cb38351	0.021913202
123	0xbe35b63a	-0.17745295
124	0xbe94130d	-0.28920785
125	0x3ed11a80	0.4084053
126	0x3deec873	0.116593264
127	0xbe5aae4f	-0.21355556
128	0xbe940888	-0.2891276
129	0xbda40e9c	-0.08010599
130	0xbda5f6bb	-0.08103701
131	0x3eaf145a	0.34195215
132	0xbc946b5b	-0.018117597
133	0x3e7596d7	0.23983322
134	0xbee0ece2	-0.43930727
135	0x3f25a714	0.64708066
136	0xbe939fa4	-0.28832734
137	0x3e85d789	0.26141003
138	0xbe597dc7	-0.21239386
139	0xbca2fb6b	-0.019895276
140	0x3cabbb15	0.020963231
141	0xbe9461ef	-0.28980967
142	0x3d3bf717	0.04588994
143	0x3e33f3b6	0.17573437
144	0xbedb1bc6	-0.42794627
145	0x3ec18e35	0.37803808
146	0xbd6e7953	-0.058221173
147	0xbea8e4ce	-0.32987064
148	0x3ef4fc89	0.4784892
149	0x3ea55efd	0.32299033
150	0xbea0660f	-0.31327865
151	0xbeb6ba4e	-0.35689014
152	0xbec49870	-0.3839755
153	0xbefa1f69	-0.4885209
154	0x3e89757b	0.26847443
155	0xbf16a5fb	-0.58847016
156	0xbe1e4e4d	-0.15459557
157	0x3c04e4ef	0.008111223
158	0x3ec2042e	0.37893814
159	0xbedaa103	-0.42700967
160	0x3e58557c	0.2112636
161	0x3efd2e20	0.49449253
162	0xbe7c56cf	-0.2464249
163	0x3dbd775b	0.09251281
164	0x3dd246b7	0.10267394
165	0x3ea81685	0.3282968
166	0xbd8e3f67	-0.06945687
167	0x3f0854ac	0.532542
168	0xbef776ab	-0.48332724
169	0x3e162e08	0.14665997
170	0x3f0f7f50	0.5605364
171	0x3ea01002	0.31262213
172	0xbe5063a5	-0.20350511
173	0x3eb3f1b7	0.3514535
174	0x3eb17e14	0.34666502
175	0xbe708e2d	-0.23491736
176	0x3ea4db2a	0.3219846
177	0xbe151351	-0.1455815
178	0xbe04eaf4	-0.12980253
179	0xbe83e7c1	-0.25762752
180	0xbed2da07	-0.41181967
181	0x3ee500fd	0.44727316
182	0x3dfa371e	0.12217544
183	0xbe0a8116	-0.13525805
184	0x3ee9afdf	0.45641991
185	0xbeee7e29	-0.46580628
186	0xbe95142b	-0.2911695
187	0xbd4560f3	-0.04818816
188	0x3ea23772	0.31682926
189	0x3eec4f62	0.46154314
190	0xbf03839d	-0.513727
191	0x3f27cde3	0.65548533
192	0x3eb1c305	0.347191
193	0x3e506417	0.20350681
194	0xbeb54b11	-0.35408834
195	0x3e8d2e9f	0.27574632
196	0x3d2e13a2	0.042499192
197	0xbdb8acdb	-0.090173446
198	0x3e062c74	0.13102895
199	0xbdddb3e0	-0.10825324
200	0x3f080636	0.5313448
201	0x3d04f35e	0.032458656
202	0x3e89fd3f	0.26951024
203	0xbee18724	-0.44048417
204	0xbef442cd	-0.47707215
205	0x3da3c0ca	0.07995756
206	0xbe4139e7	-0.18869744
207	0xbea1011f	-0.31446168
208	0xbe815ac9	-0.25264576
209	0x3e886d3e	0.26645845
210	0xbebf1d4f	-0.37327048
211	0xbed532e6	-0.41640395
212	0x3dc99ad7	0.098439865
213	0x3de0a896	0.10969655
214	0xbe838987	-0.25690863
215	0x3ec645cb	0.38725123
216	0x3cbfab50	0.023397118
217	0xbed1ae2b	-0.40953192
218	0x3e09fcf2	0.13475397
219	0x3ea61b5e	0.32442755
220	0xbc82fe55	-0.015990416
221	0x3efbdd09	0.49192074
222	0xbdd2baa9	-0.10289509
223	0x3e735154	0.23761493
224	0x3e38f532	0.18062285
225	0x3e24896b	0.16068046
226	0x3e19e1cf	0.15027545
227	0x3e904bc2	0.281828
228	0x3f243d48	0.6415601
229	0xbe36feea	-0.1787068
230	0x3dba9f0f	0.09112369
231	0xbdcbe59a	-0.099559024
232	0x3ebf224e	0.3733086
233	0x3c99c37c	0.018769972
234	0xbe901109	-0.28137997
235	0xbe327387	-0.17426883
236	0xbbacf0af	-0.005277715
237	0x3eb80a94	0.3594557
238	0x3e87232d	0.26394024
239	0xbeb23df0	-0.3481288
240	0x3e331043	0.17486672
241	0x3e9ad10f	0.30237624
242	0xbedd27c6	-0.43194407
243	0xbe195893	-0.14975195
244	0xbf2808b6	-0.6563829
245	0xbe780a5f	-0.24222706
246	0x3eece7fe	0.46270746
247	0xbe0b6be5	-0.13615377
248	0x3eb834c9	0.35977772
249	0x3e4be487	0.19911395
250	0xbe0b2e85	-0.13591965
251	0xbe8c4044	-0.2739278
252	0xbc2d341c	-0.010571506
253	0x3d27b199	0.040940855
254	0xbe5154b1	-0.20442463
255	0x3f1493aa	0.5803782

l1.bias f4 [8]
0	0x3f0f9c65	0.56098014
1	0x3f4cdbaa	0.8002268
2	0x3f42a49a	0.7603241
3	0x3ecc22ac	0.39870203
4	0x3f3c1ccd	0.73481447
5	0x3e8a1925	0.2697231
6	0x3f407f23	0.75193995
7	0x3ec9a66f	0.3938479

l2.weight f4 [8, 8]
0	0x3e905213	0.28187618
1	0xbf37e09a	-0.7182709
2	0x3e8271df	0.25477502
3	0xbed93754	-0.42425025
4	0x3fe27c08	1.7694101
5	0x3f3a26a1	0.72715193
6	0x3d034a07	0.03205302
7	0x3fb25b2f	1.3934077
8	0x3f449e51	0.7680407
9	0x3fb1d349	1.3892604
10	0x3f9be482	1.217911
11	0xbec83313	-0.39101467
12	0xbf12c900	-0.5733795
13	0xbfa03280	-1.2515411
14	0x3f57bf08	0.84275866
15	0x3e32edcc	0.17473525
16	0x3f0ee71c	0.55821395
17	0xbf1bed4d	-0.6090897
18	0x3f0775c1	0.52914053
19	0x3edc9598	0.4308288
20	0xbfaa9476	-1.3326557
21	0x3f96967f	1.1764678
22	0x3f818f8a	1.012193
23	0x3e950d17	0.2911155
24	0x3f09b3df	0.53790087
25	0xbf80bad5	-1.0057017
26	0x3f99cc81	1.2015535
27	0x3ff3a976	1.903609
28	0x3f7d0048	0.98828554
29	0x3e8bb258	0.27284503
30	0xbd87f861	-0.066391714
31	0xbf2c1930	-0.67225933
32	0x3fb280c7	1.394555
33	0xbda2a8d9	-0.079423614
34	0x3f9f9f81	1.2470552
35	0xbee58968	-0.44831395
36	0x3e4e4c47	0.20146285
37	0x3ee9c2bb	0.4565638
38	0xbe7e0f5c	-0.24810547
39	0x3fe700e0	1.8047142
40	0xbe1e8337	-0.15479742
41	0x3f9b0769	1.2111636
42	0x3de557e0	0.111984015
43	0xbe57e5c7	-0.21083747
44	0x3dea45f3	0.11439123
45	0xbdcefc28	-0.10106689
46	0x3f6598ac	0.89686084
47	0xbf2b54e4	-0.6692641
48	0xbe92a26e	-0.2863955
49	0xbdb9b62c	-0.0906795
50	0xbe8c86a7	-0.27446482
51	0xbe9dbf7c	-0.30810153
52	0xbd13d550	-0.036092103
53	0xbe349236	-0.176339
54	0xbea7bb01	-0.3275986
55	0xbd1ff0b8	-0.039047927
56	0xbfb9f259	-1.4527084
57	0x3f3b031f	0.7305164
58	0xbf344fa0	-0.70434
59	0x3f4fd42b	0.8118312
60	0x3f584b40	0.8448982
61	0x3fafc8dc	1.3733172
62	0x3fbe5f65	1.4872862
63	0xbf0d4594	-0.5518429

l2.bias f4 [8]
0	0x3f1f63a6	0.62261426
1	0x3f6651a9	0.89968354
2	0xbe50b452	-0.20381287
3	0x3ed2d9af	0.41181704
4	0xbd8f1bf1	-0.06987751
5	0x3f127f26	0.57225263
6	0xbea78a39	-0.32722643
7	0x3e914b37	0.28377697

l3.weight f4 [42, 8]
0	0xbfb54554	-1.4161782
1	0x3f300623	0.68759364
2	0xbe8bf17c	-0.27332675
3	0xbf5c0d3b	-0.8595769
4	0x3e6ad8ca	0.22934261
5	0xbe21c822	-0.15799001
6	0x3d440808	0.04785922
7	0xbeb7d3ba	-0.35903722
8	0x3e38b61e	0.18038222
9	0xbe5b7c01	-0.21434022
10	0xbf9afce7	-1.210843
11	0xbf641d34	-0.8910706
12	0xbe9bb9fe	-0.30415338
13	0xbe9769a2	-0.2957278
14	0xbe55c3f4	-0.20875531
15	0xbe952ec4	-0.29137242
16	0x3d26fa9b	0.04076634
17	0xbd41fc46	-0.047359727
18	0x3f067d1d	0.5253466
19	0xbe8c075a	-0.2734936
20	0xbdd5f26f	-0.10446631
21	0xbed93b17	-0.42427894
22	0x3e7a14fa	0.24422064
23	0xbedcf116	-0.43152684
24	0xbf1a9bbc	-0.6039388
25	0x3c78bc88	0.015181668
26	0xbf181d1d	-0.59419423
27	0x3ebfc55a	0.37455255
28	0xbf6825fa	-0.9068295
29	0xbe71e12d	-0.23621054
30	0x3e840065	0.2578155
31	0x3bbff84a	0.005858456
32	0xbc6b19e0	-0.014349431
33	0x3ee6cf1b	0.45079884
34	0x3cecc05d	0.02890032
35	0xbf5119c5	-0.81679946
36	0x3f010ad2	0.50407135
37	0xbfc03e6d	-1.5019051
38	0x3d08b890	0.033379138
39	0xbfc2053b	-1.5157846
40	0x3ebdf0ad	0.37097684
41	0x3e083b01	0.13303758
42	0xbfdb9517	-1.7154874
43	0xbfbeae05	-1.4896857
44	0x3ea79eca	0.32738334
45	0xbd98332e	-0.07431637
46	0x3eaea5af	0.34110782
47	0xbf4c03ff	-0.796936
48	0x3e4911a8	0.19635642
49	0x3f214679	0.6299816
50	0xbfc7413e	-1.5566785
51	0xbe5030c2	-0.203311
52	0x3dcfc65b	0.10145255
53	0xbe8f3eee	-0.279777
54	0x3e6b1616	0.22957644
55	0xbfb34ff8	-1.400878
56	0x3f0a6fd9	0.54076916
57	0xbf1890ff	-0.59596246
58	0xbebec687	-0.3726084
59	0x3e25b7d5	0.16183408
60	0x3f01462d	0.50497705
61	0xc0196795	-2.3969471
62	0xbe96e203	-0.29469308
63	0xbfae208d	-1.3603684
64	0xbf4bfad5	-0.79679614
65	0x3dcadeb3	0.09905758
66	0x3eb9ed39	0.363138
67	0x3e539f10	0.20666146
68	0x3e054d59	0.13017787
69	0xbe9d33b8	-0.3070352
70	0xbeb146a0	-0.34624195
71	0xbf25ba17	-0.64737076
72	0x3e9c2f26	0.3050472
73	0xbf241904	-0.6410067
74	0xbf7e4504	-0.9932406
75	0x3dba5ebb	0.091001
76	0xbfbd17b3	-1.4772857
77	0xbedf2b57	-0.43587753
78	0x3dba4dc8	0.09096867
79	0x3e28e88d	0.16494961
80	0x3e230a04	0.1592179
81	0xbf141cfd	-0.5785673
82	0xbf98b9bc	-1.1931682
83	0x3e2a8a38	0.16654289
84	0x3e36b7b3	0.17843513
85	0xbf28434c	-0.65727687
86	0xbe85c404	-0.2612611
87	0xbd650ee2	-0.055922396
88	0xbf5cafa8	-0.8620553
89	0x3f4cf31d	0.8005846
90	0xbfd05e40	-1.6278763
91	0xbf9f5e2f	-1.2450618
92	0xbfdf95fa	-1.7467644
93	0x3eb6d069	0.3570588
94	0x3da85780	0.08219814
95	0x3e1b023c	0.15137571
96	0x3ea8fbe3	0.33004674
97	0x3ea83d5b	0.3285931
98	0xbf9fbcf7	-1.2479542
99	0x3f5eae1e	0.8698443
100	0xbdb6ccdf	-0.08925795
101	0xbfb151fe	-1.3853147
102	0xbe462125	-0.19348581
103	0xbfbb698c	-1.4641585
104	0x3d6d92c1	0.058001284
105	0xbf49322a	-0.7859217
106	0xbf0aef30	-0.5427122
107	0x3f15399d	0.58291036
108	0xbe80bad9	-0.25142553
109	0xbf522eb5	-0.8210252
110	0x3e0d691a	0.13809624
111	0x3e4b1d72	0.19835451
112	0xbf8cb28b	-1.0991987
113	0x3ea06d55	0.31333414
114	0xbf0e6a53	-0.5563099
115	0xbfdafb44	-1.710793
116	0x3dc5f689	0.096661635
117	0x3eb73264	0.35780632
118	0x3e75b2a2	0.23993924
119	0xbe49c12b	-0.19702594
120	0xbcadff34	-0.021239854
121	0x3eb927c3	0.36163148
122	0xbf4672fd	-0.7751921
123	0x3cf41630	0.029795736
124	0xbe931d24	-0.2873317
125	0xbdac40fd	-0.08410833
126	0xbe56ac98	-0.20964277
127	0xbeb8f37e	-0.3612327
128	0xbe5d64ce	-0.21620485
129	0xbdfeff31	-0.12451018
130	0xbfa6b1d5	-1.302302
131	0xbf4b16d6	-0.7933172
132	0xbfc663e6	-1.5499237
133	0x3eb20985	0.34772888
134	0xbe049646	-0.1294795
135	0x3f18eb2a	0.5973383
136	0x3ee9a433	0.45633087
137	0xbfc85dd0	-1.5653629
138	0xbdc1e17e	-0.09466837
139	0x3f00093d	0.50014096
140	0x3e562355	0.20911916
141	0xc01003ed	-2.2502396
142	0x3c9469f0	0.018116921
143	0xbf2fad06	-0.6862339
144	0x3f0543c8	0.5205655
145	0xbf9d1806	-1.2272956
146	0x3ccf9ce0	0.025343359
147	0xbfd33d49	-1.6503078
148	0xbd149470	-0.036274374
149	0xbf125261	-0.5715695
150	0xbea685cb	-0.3252395
151	0x3e27e8d5	0.16397412
152	0x3e0c17ac	0.13680905
153	0xbee6f27d	-0.4510688
154	0xbf9bcd13	-1.2171959
155	0x3e90d436	0.28286904
156	0xbfb62503	-1.4230045
157	0xbf048503	-0.5176546
158	0xbe7c45aa	-0.2463595
159	0x3dcf8781	0.10133267
160	0xbc291d71	-0.010321961
161	0xbdc5a646	-0.09650855
162	0x3cd32b5a	0.025777508
163	0xbd87f6c7	-0.06638866
164	0xbe01637a	-0.12635604
165	0xbf1823c4	-0.59429574
166	0xbde8539c	-0.11344072
167	0xbd6335ed	-0.05547135
168	0xbe4df794	-0.20113975
169	0x3e304251	0.17212798
170	0xbf01cf10	-0.5070658
171	0xbf9be3f7	-1.2178944
172	0xbf4e1765	-0.8050445
173	0x3d454cd7	0.048168983
174	0xbe91df40	-0.2849064
175	0xbbd191e6	-0.0063955663
176	0xbea44f98	-0.32091975
177	0xbe3a6d25	-0.18205698
178	0xbf9bccd5	-1.2171885
179	0xbf4f7b96	-0.8104795
180	0xbeb4e097	-0.35327598
181	0xbe9f1291	-0.31068853
182	0xbea26a88	-0.31721902
183	0x3ea25d3e	0.31711763
184	0x3e00829a	0.1254982
185	0x3c59a9d6	0.013285121
186	0xbccc9277	-0.024972184
187	0xbf989f36	-1.1923587
188	0xbd5d0c6b	-0.05396692
189	0xbebefc02	-0.37301642
190	0x3cf84800	0.03030777
191	0xbd1b61a9	-0.037934933
192	0xbd894d0f	-0.06704151
193	0xbe4b2e18	-0.19841802
194	0xbf293a5a	-0.6610466
195	0xbe49bb29	-0.19700302
196	0xbdf49611	-0.119426854
197	0xbe656d81	-0.22405054
198	0x3e3a03ea	0.18165556
199	0xbe4e6d40	-0.20158863
200	0x3ec98e23	0.39366254
201	0xbfd87825	-1.6911665
202	0xbe2450d9	-0.16046466
203	0xbe5ee7ba	-0.21768084
204	0xbf49b22d	-0.787875
205	0xbed71e0e	-0.42015117
206	0x3e2ae69e	0.16689536
207	0x3ecc2ed6	0.39879483
208	0xbf074513	-0.52839774
209	0xbf8dcbd5	-1.107783
210	0x3ecdf151	0.40223172
211	0xbebcaafb	-0.36849198
212	0xbf8ac4ff	-1.0841368
213	0xbda9f877	-0.08299344
214	0xbe0e3dc7	-0.13890754
215	0x3ed1ba81	0.40962604
216	0x3dff8abb	0.124776326
217	0xbe8bf40b	-0.27334628
218	0x3e85a3d8	0.26101565
219	0xbf6b12cb	-0.9182555
220	0xbf350b5c	-0.7072046
221	0xbe6f8d8b	-0.23393838
222	0x3bde8540	0.006790787
223	0x3e7ed1f9	0.24884786
224	0xbfe69d1e	-1.8016698
225	0xbdca7a7f	-0.098866455
226	0xbe2721bf	-0.16321467
227	0xbed9b202	-0.42518622
228	0xbfb27732	-1.3942626
229	0xbbac0e86	-0.0052507548
230	0xbeb0250d	-0.34403268
231	0x3f18c558	0.5967612
232	0x3e9298c1	0.28632167
233	0xbfc400db	-1.5312761
234	0x3ea2d851	0.3180566
235	0x3e2bb51b	0.16768305
236	0x3d4cb57d	0.04997777
237	0xbfc0e390	-1.5069447
238	0xbe5e75fb	-0.21724693
239	0xbdd02533	-0.10163345
240	0xbf535ace	-0.8256043
241	0x3dbc2e62	0.09188534
242	0xbed4280c	-0.41436803
243	0xbee87e33	-0.45408782
244	0xbe8b5842	-0.27215773
245	0x3e962740	0.2932682
246	0x3deb9714	0.11503425
247	0xbe8ca179	-0.27466944
248	0xbd9905d9	-0.074718185
249	0xbf9c35bf	-1.2203902
250	0xbe7c2278	-0.24622524
251	0x3ed7a91e	0.42121214
252	0xbfd679e2	-1.6755946
253	0xbe5ac843	-0.21365456
254	0xbbbe9040	-0.005815536
255	0x3ed820d8	0.42212558

l3.bias f4 [42]
0	0xbdb4f094	-0.08834949
1	0x3e71060b	0.23537461
2	0xbedcc834	-0.43121493
3	0x3d7df2f1	0.061999265
4	0xbd2d201b	-0.042266946
5	0x3effa089	0.49927166
6	0x3f14b53e	0.58089054
7	0xbd1e3f73	-0.03863473
8	0xbdc984d9	-0.09839792
9	0xbe90d7af	-0.28289554
10	0x3df1f9f5	0.11815254
11	0x3d91df07	0.07122617
12	0x3eaaaa35	0.33332983
13	0xbdaa9ade	-0.0833032
14	0x3cff7b18	0.031186625
15	0xbe51afa1	-0.20477153
16	0x3e39aa80	0.18131447
17	0xbe0d72ab	-0.13813274
18	0xbea4a56f	-0.32157466
19	0xbe0ea744	-0.13930994
20	0x3d461526	0.048360012
21	0xbdaa92de	-0.08328794
22	0xbdb784be	-0.089608654
23	0xbc9bff7f	-0.019042728
24	0x3ddfc0af	0.10925423
25	0x3df27248	0.11838204
26	0xbd741fa7	-0.0596005
27	0xbe5bb13a	-0.21454325
28	0x3da430bc	0.08017108
29	0x3d12bb2a	0.035823025
30	0x3ad81db1	0.0016488341
31	0xbf071b02	-0.52775586
32	0xbe7598b9	-0.2398404
33	0xbe271978	-0.1631831
34	0x3e62d925	0.22153147
35	0x3d19ac2f	0.037517723
36	0x3aa6fb43	0.0012739677
37	0xbec2f366	-0.38076323
38	0x3e502701	0.20327379
39	0x3ed3523e	0.41273683
40	0xbe95eabf	-0.2928066
41	0xbe665391	-0.22492816
